src/eo_processing/resources/models/catboost_test.onnx (onnx, 3090 bytes, 2 tensors)

transform_matrix f4 [104, 3]
000000 e8 dd 93 3b eb 77 1c bd 6e 95 8f 3c ae be 3b 3b
       0.0045125373 -0.0382003 0.017527308 0.002864759
000010 cc 21 18 bd eb 5e 5e 3c 14 de 0e 3c 4c 06 03 bd
       -0.037141606 0.013572435 0.00871994 -0.031988427
000020 45 b4 01 3c 12 31 34 3c 3a cf 3f bd 47 da 03 3d
       0.007916515 0.010998027 -0.046828486 0.032190587
000030 d9 98 01 3c 8d a6 06 bd 65 38 0a 3c 35 0c 28 bb
       0.007909977 -0.03287368 0.008436297 -0.0025642042
000040 5f 3e 22 bd c3 5a 9a 3c 94 58 b5 3a cb e0 27 bd
       -0.039610263 0.018842107 0.0013835602 -0.040985864
000050 23 62 97 3c 29 60 15 3c 91 8b 40 bd 17 81 ea 3c
       0.018479412 0.009117165 -0.0470081 0.028626008
000060 c2 22 4b 3c 3e da 65 bd ae 40 16 3d 47 de da 3b
       0.012398424 -0.056116335 0.036682777 0.0066793296
000070 10 a0 6c bd 0b 0b 0d 3d 2c 0c 85 3c 32 bd 1d bd
       -0.057769835 0.03443436 0.016241156 -0.03851051
000080 6a ec 99 3c b3 1d ba 3c cd d6 97 bd e5 a9 7e 3d
       0.018789489 0.02271924 -0.07414017 0.062173743
000090 cd b5 6d 3c 1b 0e 2b bd 06 91 b3 3c 4f 36 30 3c
       0.014508677 -0.0417615 0.021919739 0.010755136
0000a0 72 b4 4c bd 57 21 e7 3c 06 40 c9 3b 37 57 85 bd
       -0.049976774 0.02821414 0.0061416654 -0.065107755
0000b0 76 b9 2b 3d b5 be 96 3c f9 e4 97 bd d3 11 70 3d
       0.041924916 0.018401483 -0.0741672 0.05861075
0000c0 29 12 d7 3c 21 6f 82 bd 32 34 63 3d 8d 36 9e 3c
       0.026253777 -0.063688524 0.0554697 0.019313121
0000d0 d2 03 83 bd c6 72 69 3d 00 34 12 3d 73 a8 45 bd
       -0.06397213 0.056994222 0.035694122 -0.04825635
0000e0 f4 47 01 3d 27 fd 07 3d 5c 6f b0 bd ae a0 a9 3d
       0.03156276 0.03320041 -0.0861499 0.082826
0000f0 66 ad 06 3d e7 40 4a bd 2a 4a 0f 3d 4c 62 b9 3c
       0.03288021 -0.049378302 0.034982838 0.02262988
000100 cc 1f 66 bd 56 4c 4b 3d d6 77 b6 3c c3 8d 93 bd
       -0.056182668 0.049633346 0.02227394 -0.07204773
000110 94 5c 7a 3d d4 8d fa 3c ee 20 a8 bd 7d 34 9b 3d
       0.061123446 0.030585207 -0.08209406 0.07578371
000120 fa 11 6a 3c f7 3f ac bd d5 1b 7b 3d 41 c5 f8 3b
       0.0142865125 -0.08410638 0.06130584 0.007591874
000130 94 5a ba bd bc 9d 86 3d 3d 80 8f 3c 83 3c 77 bd
       -0.09099308 0.06573054 0.017517203 -0.060360443
000140 10 91 82 3c f1 16 de 3c 66 47 c0 bd 5f 88 d4 3d
       0.015938312 0.027110549 -0.09388618 0.10377573
000150 d4 50 8f 3c 4d 20 8a bd cc f6 b3 3c 59 f7 66 3c
       0.017494597 -0.06744442 0.021968268 0.014097058
000160 25 2c b2 bd d6 1c 33 3d 0b 94 38 3b 7f bd ba bd
       -0.08699826 0.043728672 0.0028164412 -0.09118175
000170 23 58 a1 3d 1a 43 9b 3c dc 22 c0 bd ea 0e c8 3d
       0.07878139 0.018952895 -0.09381649 0.0976847
000180 c9 73 75 3d 46 e2 92 bd 22 dc 8a 3d 4d 97 59 3d
       0.059924874 -0.071720645 0.06780268 0.053122807
000190 2a c6 a0 bd 0b 66 98 3d e4 bd 98 3d 13 0d 76 bd
       -0.07850297 0.07441338 0.07458094 -0.060071062
0001a0 8f fa 07 3d ce 45 75 3d bd 43 80 bd b5 20 b4 3d
       0.033197936 0.059881024 -0.0626292 0.08795301
0001b0 a6 02 97 3d 47 12 80 bd 69 d7 17 3d 93 61 77 3d
       0.07373552 -0.06253486 0.037070666 0.06039579
0001c0 15 c5 96 bd 1d f5 82 3d 31 03 63 3d 0a 00 a5 bd
       -0.07361809 0.06394408 0.055422965 -0.08056648
0001d0 ec 94 9d 3d 7f cb 72 3d a6 3d 76 bd 36 1c a2 3d
       0.0769442 0.0592761 -0.060117386 0.07915537
0001e0 31 cb ea 3d 26 42 e1 3c 01 3b 80 3d 3a 10 31 3e
       0.11464537 0.027497362 0.06261254 0.17291346
0001f0 cd 02 9d 3d 20 11 44 bc 31 21 14 3e 41 29 70 bd
       0.0766655 -0.011966974 0.14465787 -0.058633093
000200 aa c6 97 3c ef 24 1b bd 94 a1 9d 3d 3e f2 83 3e
       0.018527348 -0.03787702 0.07696834 0.25770754
000210 4d 5a 17 3e 75 e6 5d bd 4d ce b1 3c f7 d5 2f 3e
       0.14780541 -0.05417486 0.021704817 0.17171465
000220 32 28 2a bd 26 0c c0 3c e7 03 fb 3d 3f 14 de 3d
       -0.04154224 0.023443293 0.12256604 0.108437054
000230 09 f5 33 3d bd 0c e6 bc 2b 6c 8d 3d e4 e3 6c 3e
       0.043934856 -0.028082246 0.06905397 0.23133808
000240 eb e3 fb 3d 4d 2f a3 3d f2 58 43 3d 5b d5 4c 3e
       0.12299331 0.07968006 0.047692247 0.20003264
000250 46 ca ea 3d ce 91 f3 bc 91 44 26 3e 58 55 5c bd
       0.11464362 -0.029732611 0.16237094 -0.053792328
000260 2f 86 37 3c ec 60 9f bd c5 f3 30 3e ae 06 92 3e
       0.011201425 -0.07782158 0.1728049 0.2852072
000270 52 19 2b 3e d1 0f 40 bd 81 27 70 3c ed 49 48 3e
       0.16708878 -0.046890084 0.014657856 0.1955945
000280 bb bf f0 bc e8 1b 98 3c 66 da 03 3e 49 07 60 3e
       -0.0293883 0.018567994 0.12876281 0.21877779
000290 46 b4 5e bb bb de 6c bd a0 e7 25 3e 91 ea 75 3e
       -0.0033981963 -0.0578296 0.16201639 0.24015261
0002a0 1a 2b 12 3e 44 e4 c6 3d ef 98 52 3d e9 3d 5f 3e
       0.14274254 0.09711507 0.05141538 0.2180096
0002b0 68 b5 19 3e 54 55 21 bd e6 ee 3c 3e 69 97 31 bd
       0.15010607 -0.039388016 0.18450508 -0.043357287
0002c0 5e c3 02 3c b0 36 3c bd 63 4a 34 3e 1f 93 99 3e
       0.0079811495 -0.04595059 0.17606501 0.29995057
0002d0 50 b7 44 3e f5 15 13 bd d0 fd 50 3c d9 32 61 3e
       0.19210553 -0.03590961 0.012755826 0.21992053
0002e0 ab 6d 74 bb 6e 03 76 3c ab 99 11 3e 28 4a 6d 3e
       -0.0037296813 0.015015466 0.14218776 0.2317282
0002f0 d8 4b 47 3c 3c 88 00 bd 5b 7c 27 3e be 0e 84 3e
       0.012164079 -0.031379923 0.16356032 0.25792497
000300 2b 82 10 3e e9 7c d0 3d 90 28 24 3d bf 28 61 3e
       0.14112155 0.10180075 0.040077746 0.219882
000310 0f 28 23 3e c5 ae 5a bd de 59 42 3e ef fd 24 bd
       0.1593325 -0.05338933 0.18979594 -0.040281232
000320 1f fb 11 bb 8c 9a 8e bd 86 0c 3d 3e 6d d3 92 3e
       -0.0022274924 -0.06963071 0.18461809 0.2867693
000330 b7 9c 49 3e f4 41 f7 bc 5a 92 44 3a 41 2e 64 3e
       0.19688688 -0.030182816 0.0007498615 0.2228327
000340 de 50 bb 3b 7f 78 02 3b 3d 27 11 3e 27 81 6b 3e
       0.005716427 0.0019908247 0.14175124 0.22998486
000350 26 c7 0c 3b 71 d0 53 bd af 5b 2c 3e 52 e7 7b 3e
       0.0021481006 -0.051712457 0.1683185 0.2459996
000360 f2 1b f1 3d f9 3f ba 3d 83 d6 b6 3b 17 d5 40 3e
       0.11772908 0.09094233 0.005579771 0.18831287
000370 25 10 1d 3e 1e a2 ae bd a8 83 22 3e 51 e1 11 bd
       0.1533819 -0.08527015 0.15870535 -0.03561527
000380 69 fe 79 bc 66 8a 91 bd 1a 14 1e 3e cc 83 60 3e
       -0.01525841 -0.071064755 0.15437356 0.21925277
000390 c8 6e 2a 3e 51 9e dd bc 94 fe 92 bc 4a 36 45 3e
       0.16643822 -0.02705303 -0.017943658 0.19258991
0003a0 54 9e a8 3b a2 77 aa bc c4 fd f8 3d a8 74 55 3e
       0.0051458273 -0.020808998 0.12157777 0.20845282
0003b0 e7 d7 22 bd 48 95 6c bd 63 a9 0d 3e 87 ec 3f 3e
       -0.03975668 -0.057759553 0.13834147 0.18742572
0003c0 e4 45 a1 3d 5c 39 dd bd 72 82 eb 3d f8 d6 8f 3d
       0.07874659 -0.10801956 0.1149949 0.07023424
0003d0 63 ff ec bd 0c a8 f3 3d 27 cc db 3d 87 2e a7 bd
       -0.11572149 0.11897287 0.10732298 -0.08163171
0003e0 c0 24 21 3d af 46 82 3d f5 23 08 be 3f 81 34 3e
       0.03934169 0.06361138 -0.13294967 0.17627428
0003f0 33 33 d1 3d 26 e3 9f bd ab 92 42 3d 12 d3 9f 3d
       0.102148436 -0.07806997 0.047503155 0.0780393

mean f4 [104]
000000 32 87 88 43 ee 01 8c 43 da ff e4 42 94 c5 da 43
       273.0562 280.01508 114.49971 437.54358
000010 9e 26 fc 42 0d 3d 39 43 ec ca 9e 43 6f bf c9 43
       126.075424 185.23848 317.58533 403.49557
000020 af 5d bb 43 30 6e b5 43 e1 ad 2d 43 fd ff 10 44
       374.7319 362.86084 173.67921 579.9998
000030 17 46 49 43 53 7a 8a 43 c1 65 cf 43 30 b3 05 44
       201.27379 276.95566 414.79495 534.7998
000040 43 08 1e 44 ab b2 1c 44 d2 47 c7 43 7c 17 5b 44
       632.1291 626.7917 398.5611 876.36694
000050 71 79 d9 43 90 d3 08 44 c7 9e 2b 44 f9 e4 4c 44
       434.94876 547.30566 686.4809 819.5777
000060 a5 6b 1d 44 da 7b 16 44 ae 96 a5 43 fb 4e 75 44
       629.68195 601.9352 331.1772 981.2341
000070 95 bb b7 43 77 b9 ea 43 32 25 33 44 f1 a8 64 44
       367.46548 469.44894 716.5812 914.6397
000080 15 80 8c 44 d9 a6 89 44 0c f2 4b 44 b2 0e c0 44
       1124.0026 1101.214 815.782 1536.4592
000090 dd 69 56 44 23 aa 77 44 90 b5 95 44 77 90 b3 44
       857.6541 990.6584 1197.6738 1436.5145
0000a0 2b ee 06 45 99 d1 01 45 00 17 9a 44 7b c7 57 45
       2158.8855 2077.0999 1232.7188 3452.4675
0000b0 ef 27 a4 44 fe 0a cf 44 30 eb 1f 45 09 8d 4d 45
       1313.2479 1656.3435 2558.6992 3288.8147
0000c0 4e 53 1d 45 0f 6b 14 45 d8 55 ae 44 5c 4d 81 45
       2517.2065 2374.6912 1394.6826 4137.67
0000d0 fb d1 b9 44 41 bc e9 44 9a e9 3e 45 69 70 75 45
       1486.5619 1869.8829 3054.6 3927.0256
0000e0 fc 2e 28 45 e3 c8 21 45 30 55 c4 44 6a e2 84 45
       2690.9365 2588.5554 1570.6621 4252.302
0000f0 2c 98 d1 44 df a5 01 45 63 da 48 45 ca 75 7c 45
       1676.7554 2074.367 3213.6492 4039.3618
000100 5d e1 2e 45 5b 41 28 45 0f 6e cd 44 cf d1 89 45
       2798.0852 2692.0847 1643.4393 4410.226
000110 b3 02 db 44 d9 a6 07 45 45 16 50 45 52 58 83 45
       1752.0844 2170.428 3329.3918 4203.04
000120 5b 63 30 45 0e 60 2b 45 9e 61 cf 44 8c b7 89 45
       2822.2097 2742.0034 1659.0505 4406.9434
000130 af dd dd 44 3c 5b 0a 45 b6 aa 50 45 a3 61 83 45
       1774.9276 2213.7021 3338.6694 4204.2046
000140 fb 27 08 45 51 5c 07 45 0f a5 c2 44 ae 75 2a 45
       2178.4988 2165.7698 1557.1581 2727.355
000150 f5 fc d0 44 53 ef f7 44 b7 a0 10 45 12 06 23 45
       1671.9049 1983.4789 2314.0447 2608.3794
000160 89 99 a7 44 2b 5a a4 44 d6 7c 55 44 b4 3b ec 44
       1340.798 1314.8177 853.95056 1889.8657
000170 da c6 65 44 1c 11 89 44 35 55 b7 44 4f be d9 44
       919.10706 1096.5347 1466.6627 1741.9471
000180 70 db 14 3f 1a ea 14 3f 86 76 ae 3e 47 c6 55 3f
       0.58147335 0.5816971 0.340748 0.8350567
000190 34 17 c8 3e 41 b7 f5 3e f8 bb 35 3f 06 db 4f 3f
       0.39080203 0.47991374 0.7098994 0.8119358
